weights.pth (torch, 2845 bytes, 4 tensors)

net.0.weight f4 [16, 4]
0.041629434 -0.10483611 -0.08160031 -0.3368743 -0.35100305 0.3108552 -0.3955896 -0.26862043
-0.4802217 0.4485554 0.12662739 0.39235377 0.34325898 0.46737927 -0.05023396 -0.066156805
-0.07219124 -0.055574834 -0.25515288 0.14454031 0.2541889 -0.32077628 0.1422196 -0.15926719
-0.36959714 -0.27998894 -0.34076965 0.10564911 -0.31615424 -0.009663045 0.18478227 0.052361667
-0.45816153 -0.009328663 0.22118723 -0.062809765 0.3707118 -0.38046932 -0.4215216 -0.10521722
-0.4325366 -0.07635331 -0.26181984 -0.4936338 -0.06978136 -0.31499594 -0.3692335 -0.29078746
0.396245 0.28269958 -0.25724798 0.31486708 0.25297844 -0.4226827 0.35192 0.17367691
0.38889623 0.06514299 0.414634 -0.496673 0.40401453 -0.3887757 0.33427083 0.4055863
00000000: a083 2a3d 50b4 d6bd 101e a7bd ca7a acbe
00000010: acb6 b3be 6a28 9f3e b88a cabe 9e88 89be
00000020: 9edf f5be 0ea9 e53e 9caa 013e 98e2 c83e
00000030: a4bf af3e 564c ef3e 20c2 4dbd 387d 87bd
00000040: 00d9 93bd 70a2 63bd 66a3 82be 6002 143e
00000050: 0c25 823e ca3c a4be 04a2 113e f016 23be
00000060: d63b bdbe b65a 8fbe 5c79 aebe 905e d83d
00000070: f8de a1be c051 1ebc 9037 3d3e 3079 563d
00000080: 2694 eabe 40d7 18bc e87e 623e 68a2 80bd
00000090: f0cd bd3e e0cc c2be aed1 d7be 207c d7bd
000000a0: 7075 ddbe 205f 9cbd 400d 86be 92bd fcbe
000000b0: 88e9 8ebd 2647 a1be 2c0c bdbe 18e2 94be
000000c0: a0e0 ca3e 00be 903e 02b6 83be 4236 a13e
000000d0: 6486 813e de69 d8be dc2e b43e 5cd8 313e
000000e0: 681d c73e b069 853d e84a d43e ec4b febe
000000f0: feda ce3e 9c0d c7be 8c25 ab3e 02a9 cf3e

net.0.bias f4 [16]
-0.24108702 0.19433159 0.2985931 0.14684409 0.10386068 0.35793817 0.23473817 -0.21823812
0.49969542 -0.3798316 0.02295667 0.15626627 -0.14198434 0.14900446 -0.21879601 -0.019942462
00000000: 84df 76be dcfe 463e 32e1 983e 4c5e 163e
00000010: e8b4 d43d ac43 b73e 345f 703e d079 5fbe
00000020: 14d8 ff3e 4a79 c2be a00f bc3c 4404 203e
00000030: 5864 11be a094 183e 100c 60be 605e a3bc

net.2.weight f4 [3, 16]
-0.11475474 -0.011351198 -0.17609021 -0.20026714 -0.024752676 0.24603239 -0.20013276 -0.16799155
0.17725414 0.048053145 0.036516845 0.013304979 -0.015095234 0.028361797 -0.20884487 0.038880736
-0.096478164 0.05928436 0.19378635 -0.06813079 -0.14122304 0.24765146 0.2165339 0.048890293
-0.0747025 -0.14742234 0.17259628 0.024477243 0.028479338 -0.035377055 -0.20512915 -0.009538293
-0.13500988 0.10242501 -0.1270124 0.24340197 0.20277527 -0.036347806 -0.037490487 0.23362774
0.022419572 0.11518705 0.23403203 0.12558115 -0.0101441145 -0.13187063 0.14788213 -0.06335142
00000000: 8804 ebbd 60fa 39bc fe50 34be d412 4dbe
00000010: 20c6 cabc eaef 7b3e 9aef 4cbe fa05 2cbe
00000020: 1c82 353e 60d3 443d b092 153d 20fd 593c
00000030: 0052 77bc 0057 e83c 6edb 55be 6841 1f3d
00000040: 5896 c5bd 28d4 723d ee6f 463e 2888 8bbd
00000050: c69c 10be 5898 7d3e 10bb 5d3e 3041 483d
00000060: a0fd 98bd e2f5 16be 14bd 303e 8084 c83c
00000070: 804d e93c 88e7 10bd 600d 52be 8046 1cbc
00000080: 0840 0abe 34c4 d13d 8a0f 02be 5e3e 793e
00000090: 52a4 4f3e 70e1 14bd a08f 19bd 1c3c 6f3e
000000a0: 40a9 b73c 30e7 eb3d 18a6 6f3e 5898 003e
000000b0: 8033 26bc 1809 07be 6a6e 173e 64be 81bd

net.2.bias f4 [3]
-0.24856472 0.04404688 0.12901485
00000000: c087 7ebe 806a 343d 781c 043e
