weights.pth (torch, 2845 bytes, 4 tensors)

net.0.weight f4 [16, 4]
-0.42247957 0.42957497 -0.24654216 -0.07894558 -0.28278887 0.40274072 0.3962564 0.14414549
-0.25507253 -0.31760973 0.4248551 -0.14490557 0.37662983 0.37332326 -0.15993011 0.23033166
0.044958472 0.4859159 -0.38063985 0.28262883 0.4711966 -0.054260015 -0.46426386 -0.45268
0.39368385 0.30174494 0.4734428 -0.24529642 -0.4964115 0.41516876 0.49265224 0.10643613
0.16173786 -0.1942721 -0.22332269 -0.39771503 -0.16949075 0.43542695 0.08785862 0.39333624
0.21881318 0.40449965 -0.1791957 0.15940988 -0.4958552 0.31576985 0.14949644 -0.17235118
0.088421345 0.067619085 -0.1379103 0.26751012 0.0066140294 0.2034294 0.40903223 0.002503872
-0.4992816 0.30066234 0.49517107 -0.3286677 0.22825646 0.14535087 0.10753983 0.4733336
00000000: 3e4f d8be 40f1 db3e 8c75 7cbe 38ae a1bd
00000010: b4c9 90be 0834 ce3e 1ee2 ca3e e09a 133e
00000020: de98 82be be9d a2be 9c86 d93e 2062 14be
00000030: a0d5 c03e 3a24 bf3e b8c4 23be 10dc 6b3e
00000040: 6026 383d f8c9 f83e 3ae3 c2be bab4 903e
00000050: ae40 f13e c03f 5ebd feb3 edbe acc5 e7be
00000060: ee90 c93e 507e 9a3e 1867 f23e fc2e 7bbe
00000070: a629 febe 0091 d43e ea3c fc3e 30fb d93d
00000080: 9c9e 253e 44ef 46be b4ae 64be 4ea1 cbbe
00000090: fc8e 2dbe 48f0 de3e 38ef b33d 5e63 c93e
000000a0: 9010 603e 941a cf3e 147f 37be 583c 233e
000000b0: bce0 fdbe 96ac a13e 9815 193e d47c 30be
000000c0: 4016 b53d e07b 8a3d 5c38 0dbe 16f7 883e
000000d0: 80ba d83b cc4f 503e ac6c d13e 0018 243b
000000e0: d6a1 ffbe 6af0 993e 1087 fd3e 2247 a8be
000000f0: 10bc 693e dcd6 143e d83d dc3d c858 f23e

net.0.bias f4 [16]
-0.018901944 0.08055544 -0.019800127 0.42629236 -0.26662433 -0.4387803 0.4595821 -0.18495816
-0.19025964 0.18784499 0.27771616 0.069880724 0.15884352 0.041244745 0.3479163 -0.46805078
00000000: 40d8 9abc 40fa a43d e033 a2bc fe42 da3e
00000010: fc82 88be d0a7 e0be 584e eb3e ac65 3dbe
00000020: 6cd3 42be 705a 403e d030 8e3e a01d 8f3d
00000030: e0a7 223e 40f0 283d 1622 b23e 5aa4 efbe

net.2.weight f4 [3, 16]
0.069780886 0.17415279 0.06707755 0.049852878 0.14451414 -0.0199759 -0.035326242 0.23299807
0.15895164 -0.20862183 0.13118294 0.091845304 -0.028891534 -0.17370066 -0.15587834 0.07521081
0.2261779 0.09978375 0.13439572 0.21200895 -0.13249019 0.11677012 -0.016047835 0.18603343
0.1250296 -0.23870358 -0.17751801 -0.13675267 0.06425631 0.14645517 -0.09366652 0.06817794
0.061082065 0.076131344 0.08173674 -0.22502896 0.1396713 0.14535066 -0.098519444 -0.008065224
-0.14435601 -0.20466429 0.1417453 0.031213284 0.0047975183 0.030312926 0.13655159 -0.09685364
00000000: 48e9 8e3d 1c55 323e f45f 893d 8832 4c3d
00000010: 84fb 133e 80a4 a3bc 40b2 10bd 0c97 6e3e
00000020: 38c4 223e f6a0 55be d254 063e 6419 bc3d
00000030: f0ad ecbc 96de 31be 929e 1fbe 2008 9a3d
00000040: 2e9b 673e 6c5b cc3d 089f 093e e018 593e
00000050: 82ab 07be 2c25 ef3d c076 83bc 8c7f 3e3e
00000060: c207 003e b66e 74be 48c7 35be e408 0cbe
00000070: d098 833d 58f8 153e 3cd4 bfbd e0a0 8b3d
00000080: 3031 7a3d c0ea 9b3d 9865 a73d fe6d 66be
00000090: fe05 0f3e ced6 143e 90c4 c9bd 0024 04bc
000000a0: 10d2 13be 8493 51be ae25 113e 00b3 ff3c
000000b0: 8034 9d3b d052 f83c 2ed4 0b3e 345b c6bd

net.2.bias f4 [3]
0.19269845 -0.24614483 -0.24477297
00000000: be52 453e 640d 7cbe c4a5 7abe
